model.pth (torch, 261760 bytes, 4 tensors)

conv1.weight f4 [16, 3, 3, 3]
000000 69 df 28 3e 90 f6 ab 3a 74 40 02 bd 95 1a cf 3e
       0.16491474 0.0013119746 -0.03179975 0.40449968
000010 3f 14 ca 3e 5c f8 66 3e 1e 4d 8e be e8 63 95 be
       0.39468572 0.22555679 -0.2779321 -0.29177785
000020 0b b6 80 be 6f 65 4c be ea e2 41 be ca e9 b8 bd
       -0.25138888 -0.19960569 -0.18934217 -0.09028967
000030 92 cd 9f 3d e0 0b 18 bc ea a4 51 3e ba 2c a8 3c
       0.07802881 -0.009280175 0.20473066 0.02052914
000040 3b 75 39 be 63 b3 14 bd a1 f5 01 3e ee d2 11 be
       -0.18111126 -0.03630389 0.12691356 -0.1424062
000050 fb 84 68 3e 25 1b 6d bd c8 b0 10 3e db d6 10 3d
       0.22706978 -0.057887215 0.14129937 0.035361152
000060 0e 34 44 be 99 2e 04 bc ab 7d 26 be 12 b3 37 3e
       -0.19160482 -0.00806775 -0.16258876 0.17939404
000070 af c6 57 3e 2e 3c 23 3d 04 97 a3 3e 54 56 03 3e
       0.21071886 0.039852314 0.31951153 0.128259
000080 98 28 cb 3c 7c d4 ad bd 58 7e b9 be f5 fe a1 be
       0.02479963 -0.08487794 -0.36229205 -0.3163983
000090 37 15 98 3d 9f 2d bc 3d f2 ea f8 3d d0 87 66 bc
       0.074259214 0.09188389 0.12154187 -0.014070466
0000a0 3f 15 01 be 59 51 68 bd f4 78 2e be 72 4e 5c 3d
       -0.12605761 -0.056718204 -0.17038327 0.05378575
0000b0 04 77 20 be e4 5a 15 be 96 72 6c be 24 6b 72 3e
       -0.15670401 -0.14585453 -0.23090586 0.23673683
0000c0 f6 24 0f 3e e9 72 16 3e 79 f5 04 be 9f a1 11 be
       0.13978943 0.14692272 -0.12984265 -0.1422181
0000d0 1e cc ac 3d be cc ec 3d 32 b1 32 bd 0a 42 01 bd
       0.0843737 0.11562489 -0.043626018 -0.03155712
0000e0 8d 38 0c bd 19 e9 61 3e fe 1c a4 bc ef ef 98 3d
       -0.03423362 0.22061576 -0.020033356 0.07467639
0000f0 d1 cd 65 3e 59 c1 a4 be d1 dd 8d bd 11 08 72 be
       0.22441794 -0.32178763 -0.06927074 -0.2363589
000100 b1 7b 2b 3e 6f 7e 9d 3e 05 a5 97 3e b6 58 44 3e
       0.16746403 0.30760524 0.29618087 0.19174466
000110 1e 43 02 3d 55 37 7a 3e d3 f0 87 be 44 4a 95 bd
       0.03180229 0.2443517 -0.26550922 -0.07289556
000120 e7 1c 6e be ba 6c 4a bd 4f 2a 8d bc bd 94 bc bd
       -0.23253213 -0.049420096 -0.017232088 -0.09208057
000130 fa 01 68 3c 0b 64 ea bc b6 34 1e bd af 2a 4b be
       0.0141606275 -0.028612157 -0.038624488 -0.19840501
000140 b2 28 1e bd e5 6b c2 be a0 7a 2c be c6 40 35 be
       -0.03861303 -0.37972942 -0.16843653 -0.1770049
000150 18 d2 7f 3d 65 2e 62 3e 22 d4 86 3e 50 8b 79 3e
       0.06245622 0.2208801 0.2633372 0.2436955
000160 c1 67 98 3e 7e f0 6f 3c cf a3 3d be ea 25 59 be
       0.29766658 0.01464474 -0.1851952 -0.2120587
000170 60 4e 6e be 49 d1 77 bd 2d e4 20 bd 3b 2c 03 3d
       -0.23272085 -0.060502324 -0.039280105 0.032024603
000180 2c e7 f1 bd 82 10 28 be cb 53 fc ba 81 4f 7d 3d
       -0.11811671 -0.16412547 -0.0019251046 0.0618434
000190 6d 86 1c be 14 ba 44 3e 98 5e 96 bc 61 89 65 3e
       -0.15285654 0.19211608 -0.018355653 0.22415687
0001a0 1d 5e 0c bd 63 a6 70 3e 62 8e ba bd 7b b6 d5 3c
       -0.03426944 0.23500971 -0.091091886 0.02608799
0001b0 18 8c bf 3e 75 f9 49 be 02 b3 4d 3d 39 aa 3d be
       0.3741157 -0.19724067 0.050219543 -0.18521966
0001c0 2c 99 25 be f9 ba 73 3e e0 91 8d bd d8 a3 74 3c
       -0.16171712 0.23801793 -0.06912589 0.0149316415
0001d0 ef f6 a2 bc 94 ac a1 3e 9e be 1a be 7d 1e 99 be
       -0.019893138 0.3157698 -0.15111777 -0.29906073
0001e0 f7 cc f1 3c 97 e8 33 be 5e 52 53 bd 3a 66 1c bd
       0.02951668 -0.17569195 -0.051592223 -0.03818343
0001f0 f3 5d d8 3e 5a 33 cb 3e ad 60 00 be 3e ee f3 be
       0.42259178 0.39687616 -0.12536879 -0.47642702
000200 cc 5e 0f bd 93 34 d3 bd f4 1e 5e be f8 d3 0b 3e
       -0.035002515 -0.10312762 -0.21691495 0.13655078
000210 13 fc 0f be 7a bf d9 3e 2c 6b b7 3e dd 3f 98 be
       -0.14061002 0.42528898 0.35823953 -0.29736224
000220 c0 a9 d6 3d a3 35 91 3e 4c 47 82 be db 04 a8 bd
       0.10481596 0.28361234 -0.2544502 -0.08204051
000230 94 ec 2a 3e ee 53 2c 3e 95 d6 1e bd 29 96 a6 be
       0.1669181 0.16828892 -0.03877886 -0.32536438
000240 70 4c b5 be df ec 7f 3e 1f 4a a9 3d ab 49 92 bd
       -0.3540988 0.24992703 0.082660906 -0.07142957
000250 0c d8 7b ba 8f 5c c2 bd 7a 8e ca 3e 3b f9 22 3e
       -0.00096070836 -0.094903104 0.39561826 0.15915386
000260 d9 dd 8b be ed b4 d9 bd d9 bc d0 3d 63 5e 3e 3e
       -0.27317694 -0.10630212 0.1019227 0.18590693
000270 9e 21 ae bc 19 c3 60 be 33 05 d6 3d 21 88 bd 3e
       -0.021256264 -0.21949424 0.104502104 0.3701792
000280 83 70 39 3e 5d fb e0 be 47 35 7b 3d f2 84 81 3d
       0.18109326 -0.43941775 0.061330106 0.063241854
000290 48 8a c4 bd 84 ea aa be ac 2f a6 be ae c2 3a be
       -0.095966876 -0.33382046 -0.32458246 -0.18238327
0002a0 eb 12 11 3d 6f e0 d4 3e ee 66 e7 3e 50 78 33 3e
       0.035418432 0.4157748 0.45195717 0.17526364
0002b0 05 95 8a 3d 79 54 b6 3d cb df 0c bd 42 4d 4f be
       0.067667045 0.08902831 -0.034393113 -0.20244315
0002c0 f4 0f ab be 62 55 51 be af c7 e7 3d a4 dc 17 bb
       -0.3341061 -0.20442727 0.113173835 -0.0023172284
0002d0 f3 e4 1d 3e b8 c5 38 3e 33 fb b6 3d 18 5e 31 bd
       0.15419368 0.18044174 0.08934631 -0.043302625
0002e0 9c cb 17 bd 3c e2 ce bd f1 4f 5e bd 0c c2 4f 3e
       -0.03705941 -0.101017445 -0.054275457 0.20288867
0002f0 59 71 32 be 2d cb 73 3c 83 3c b1 3d 8b c2 b0 3d
       -0.17426051 0.014879984 0.0865412 0.08630856
000300 64 a6 f8 3d 3b 06 12 3e db e7 a4 3a bf 69 15 3e
       0.121411115 0.14260189 0.0012581305 0.1459112
000310 87 23 e5 3c bf f8 8f be 0d 53 74 be d1 ae 12 3e
       0.027971042 -0.28119466 -0.23859806 0.143245
000320 9d 01 18 3e 3f 41 f3 bc fb b7 32 bd 01 66 db 3d
       0.14844365 -0.029694198 -0.04363249 0.10712815
000330 f3 a1 20 3e c4 1e 99 3d 67 9a c0 be d1 23 82 bd
       0.15686779 0.07476571 -0.376178 -0.06354488
000340 e3 93 1f 3d 5c df 0a 3c 92 59 23 3c 63 55 6d 3e
       0.038959395 0.008476105 0.009970086 0.23177104
000350 ea 81 0f 3e 7f eb 3e 3d 86 17 0a 3e d7 d7 b1 be
       0.14014402 0.046611305 0.13485536 -0.34734985
000360 68 95 cf bd fb 67 9f be 32 11 84 3d e3 8c a6 bd
       -0.10135919 -0.31134018 0.06448592 -0.08132341
000370 24 29 36 bc d5 fd a3 3e d2 bd e6 3c 5c f1 89 3e
       -0.011118207 0.32029596 0.028166685 0.26941955
000380 4d ec 91 3e 41 bc 79 be 12 f4 7f be 65 63 1c 3e
       0.28500596 -0.2438822 -0.24995449 0.15272291
000390 ef b5 2c be 8b 65 12 3e 37 2b 3f bc c5 b5 44 be
       -0.16866277 0.14296548 -0.011668018 -0.19209965
0003a0 bb c2 5b bd bd 9e ab 3d ba c2 1f be 95 d2 ce 3d
       -0.053652506 0.08379886 -0.15601626 0.10098759
0003b0 9b 71 e7 bc 08 78 4b 3c 0e c5 55 bd ba 57 43 3d
       -0.028252413 0.012418754 -0.05218988 0.047691084
0003c0 1e f2 8b bd 61 5e 24 3e 70 37 3c be 88 1f 72 3d
       -0.068332896 0.16051628 -0.18380523 0.0591121
0003d0 14 a9 c9 3e 3b 42 a0 3e c6 d0 96 be 12 67 49 be
       0.3938681 0.3130053 -0.29456156 -0.19668224
0003e0 89 bb 9e 3e ba 75 c2 bd 81 d2 0f be 23 c2 c5 bd
       0.31002453 -0.09495111 -0.14045145 -0.09656169
0003f0 f1 5b 12 3e a4 6d 7a 3e 30 b0 ac 3e 8e 63 bb be
       0.14292885 0.24455887 0.3372817 -0.36599392

conv1.bias f4 [16]
000000 a9 3d 1f be 9b b8 94 bd 3f 02 42 be 64 96 2a be
       -0.15550865 -0.07261773 -0.1894617 -0.16658932
000010 e7 57 4b be 10 68 87 ba 9d c9 90 bb 21 29 a1 be
       -0.19857751 -0.0010330696 -0.0044185654 -0.3147669
000020 bc 62 a6 be 2c 63 46 be 4c 9f ce 3b 35 f7 1a be
       -0.32497203 -0.19373769 0.0063056108 -0.15133364
000030 9e 21 10 3d 61 a7 90 be c3 03 5e be c7 09 a2 be
       0.03518831 -0.282527 -0.21681122 -0.31648085

fc1.weight f4 [7, 9216]
000000 0b 0e 06 bc 8c 91 30 bc d8 00 3a bd 4b 8a 28 3c
       -0.008182059 -0.010776889 -0.04541096 0.010286878
000010 f1 35 ac 3d dc 39 97 3d bd 1f c5 bd f9 33 bb bd
       0.08408726 0.07384083 -0.09625194 -0.09140772
000020 c7 9b 05 be 9a 19 d9 bc a5 17 00 3d e3 77 1f 3d
       -0.13047706 -0.026501466 0.03127255 0.038932692
000030 44 a2 2f bd d9 d0 ce bc 20 68 48 bd 40 64 1c bd
       -0.042879358 -0.02524607 -0.048927426 -0.038181543
000040 be 00 bc bc 09 65 aa bd df bd 2c 3d 1f 9c dc 3b
       -0.022949573 -0.08320052 0.042173263 0.0067324783
000050 0c 53 30 bd 2a 2c bc 3c 45 b3 68 3d a8 ca 9d 3b
       -0.04304795 0.022970278 0.05681159 0.0048154183
000060 37 89 a4 3a 80 34 02 3d 26 29 a9 bd 6c e9 b7 bd
       0.00125531 0.03178835 -0.082598016 -0.089800686
000070 fa 77 e9 bd 58 8d 1e 3b a0 98 f9 bc 12 2f 56 bd
       -0.11399837 0.0024193134 -0.030468285 -0.052290983
000080 79 ef 63 bd bb f0 a9 3c bb f6 77 3d fc 43 8b 3c
       -0.0556483 0.020744672 0.060538035 0.01700019
000090 77 ed 94 3d dd 40 96 3d e7 5c 9d 3c 26 80 e7 3b
       0.07271855 0.073365904 0.019209338 0.007064837
0000a0 c1 6b bd 3c 7b b9 07 bd 0f 97 51 bd 70 88 54 3c
       0.02312267 -0.033135872 -0.05116945 0.012971982
0000b0 af 49 81 3c 6f 67 17 bd ee a5 d8 bd 63 be d9 bb
       0.015782205 -0.036963876 -0.105785236 -0.0066450103
0000c0 b6 55 46 3d 8d 45 28 bd 48 66 08 be 65 f6 0b be
       0.048421584 -0.041081954 -0.13320267 -0.13668211
0000d0 dc bf 9c bd a0 b3 0e 3d dd 5f 99 bd ba eb ee bd
       -0.07653782 0.034839272 -0.074889876 -0.11666055
0000e0 33 3d 22 bd 96 85 58 bd 47 a1 93 bd 3d 92 46 3d
       -0.039609145 -0.052861772 -0.072084956 0.048479307
0000f0 67 99 9f 3c 46 29 1a be 33 6c e9 bd 33 37 28 bd
       0.019482328 -0.15054807 -0.113975905 -0.041068267
000100 52 a9 79 bd 04 34 43 bd bb e9 bf bb f8 16 fb 3c
       -0.060952492 -0.047657028 -0.0058567203 0.0306506
000110 57 76 79 3d c1 d2 26 bd 33 97 20 bd 91 c6 23 3d
       0.060903873 -0.040728334 -0.039206695 0.03998429
000120 37 c8 5a bc 4b 04 4f bd 18 ac 8e bd 60 b4 76 bd
       -0.013353399 -0.050541203 -0.06966418 -0.060230613
000130 fb 72 1a 3d e0 eb 7e 3d a7 87 ba 3c c0 9d c2 bc
       0.03770731 0.062236667 0.022769762 -0.023756862
000140 6a 70 37 bc 75 1e 4a 3d dc 0f 1f bd ba 69 57 bd
       -0.011196235 0.049345452 -0.038833484 -0.052591063
000150 33 94 aa bd 5a 68 cb bd f7 49 23 bd b2 8f 0c 3d
       -0.08329048 -0.09932013 -0.03986546 0.034316726
000160 a9 4a a5 3c b3 bc 06 bc 12 53 77 bd 3d 49 0e 3d
       0.020177202 -0.0082237 -0.060381956 0.034737814
000170 90 cd f7 3c b8 7f 19 3d 47 44 71 3d ac ed b5 bc
       0.030249387 0.037475318 0.058903005 -0.022208057
000180 04 8f bd 3d 94 cc 47 3d 7e ec dc bc 20 92 4a bd
       0.09255794 0.048779085 -0.026968237 -0.049455762
000190 5b 3e 4f 3d 96 2f 99 3d 40 8b 74 bd fa 8f 28 bd
       0.050596576 0.074797794 -0.05970311 -0.04115293
0001a0 18 11 0b be 8b e2 31 bc e9 c7 ce 3d cd 99 d5 3d
       -0.1358074 -0.010857235 0.100967236 0.10429726
0001b0 5d 1b 2f 3c 0d 67 e4 bd c8 08 42 be 7b 91 cc bd
       0.010687676 -0.11152468 -0.18948662 -0.09988686
0001c0 65 4e 8a bd 54 07 54 3d c9 f9 17 3d 1e bf 9a 3d
       -0.06753234 0.0517648 0.037103448 0.07555984
0001d0 3d 6c be 3d d3 4b 45 3d 26 4a 00 bc 51 94 32 bd
       0.092979886 0.048168015 -0.007830178 -0.043598477
0001e0 4f 9f de bc 52 67 8b bd 2d f6 36 bd d2 cf 75 3d
       -0.027175574 -0.06806816 -0.044668365 0.060012646
0001f0 7d 44 22 3e f7 2d 1f 3e f8 18 93 bc 79 80 8a bd
       0.15846439 0.15544878 -0.017956242 -0.067627855
000200 c5 18 db bd 5f 00 50 bd 60 ac 53 bd 65 5a eb bd
       -0.10698084 -0.050781604 -0.05167806 -0.11491851
000210 5f 3c 24 be 8f 01 1a bd 83 52 84 bd ef df 99 bd
       -0.16038655 -0.037599143 -0.0646105 -0.07513415
000220 57 2d 85 bd e8 e2 08 bd 45 76 89 bd c2 67 0f 3c
       -0.065027885 -0.03341952 -0.06712011 0.008752765
000230 49 39 a0 3d 72 47 c6 bc c6 62 93 3d 5f 69 a0 3d
       0.07823426 -0.02420399 0.07196574 0.07832598
000240 b1 7e 05 be c8 82 51 bd b5 45 d7 3b 66 91 51 bc
       -0.1303661 -0.051150113 0.006569589 -0.012791013
000250 ea f1 27 3d 76 5f e9 3d 3a 13 c9 3d 15 02 6c 3c
       0.04100219 0.11395161 0.0981812 0.014404793
000260 c9 9b a6 bd 76 f9 ac bd 54 4b d1 b9 ad 0e 0e 3e
       -0.081351824 -0.084460184 -0.0003991971 0.13872786
000270 50 29 b0 3d da 8f d4 bb 81 c2 29 bb 90 da e1 bd
       0.0860163 -0.006486875 -0.0025903287 -0.110280156
000280 70 9e 3c bd 1d af 87 bd 44 18 9d bd f9 9b b9 bc
       -0.046049535 -0.06625197 -0.07670644 -0.022657381
000290 f8 b8 a6 3c fb 3d 97 bd fd 8a 1b bc c6 c5 a4 bd
       0.020351872 -0.07384869 -0.009493587 -0.08045535
0002a0 35 99 23 bd a6 08 97 bc 2d e8 41 bd 85 1f f1 bd
       -0.03994103 -0.018436741 -0.04734056 -0.1177359
0002b0 8b f2 e0 3d 2e 0f 99 bc 75 59 c0 bd 7d 0a 4a bd
       0.109837614 -0.018683996 -0.093920626 -0.04932641
0002c0 bd ef ba bd b0 b5 a3 bd 33 07 f6 bc 33 97 fd 3d
       -0.09127758 -0.079936385 -0.03003273 0.123823546
0002d0 d6 e6 85 3d 89 94 ab ba 32 31 17 bc e8 15 cf bc
       0.06538169 -0.0013090532 -0.009228038 -0.025279
0002e0 25 56 cd 3b 24 9b 82 3c 16 bb 81 bc fc 83 b4 3d
       0.0062663727 0.015943117 -0.01583628 0.088142365
0002f0 87 1a c0 3d 12 71 c9 bd 39 3f 05 3d e0 e5 f2 3c
       0.0938006 -0.098360196 0.032530997 0.029650629
000300 8e 81 e6 3c 1d d8 21 3c 9e 28 cb 3c 7b 4f 85 3d
       0.028137948 0.009878186 0.024799641 0.065093
000310 49 e9 3e bc b1 77 93 3c c2 f8 a6 3d 70 96 7b 3d
       -0.011652299 0.01800141 0.081529155 0.061422765
000320 5e 27 8d 3d f9 36 95 3d 44 fa 27 3e 77 cb e9 3d
       0.06892274 0.07285876 0.16404063 0.11415761
000330 27 df dd 3d db de 06 3e a6 38 35 3d bc c2 43 ba
       0.108335786 0.1317095 0.044243477 -0.00074676774
000340 30 85 55 bb 43 6f 80 3d 45 fb 06 3d d1 49 0b 3d
       -0.0032580607 0.062712215 0.032954473 0.034005944
000350 af 64 51 bd ed 0a 35 bd 39 c3 a2 bc 09 26 86 3b
       -0.05112141 -0.044199873 -0.01986848 0.0040938896
000360 f3 5e 87 3d ce 31 06 3d 34 14 a1 3d f5 2a 36 3d
       0.06609907 0.03276234 0.078651816 0.04447456
000370 81 d1 9a 3d 77 6e fc 3c 48 02 90 3c 60 1d 3c 3c
       0.07559491 0.030814392 0.017579213 0.011481613
000380 4e 90 db 3d 30 2b 0e 3e 43 22 c4 3d 21 b5 13 3d
       0.10720883 0.13883662 0.095768474 0.03606141
000390 22 1c 9e 3d 58 ae 7f 3d 4d 37 ed 3d 77 fa ce 3d
       0.0772021 0.062422127 0.115828134 0.10106366
0003a0 a2 f2 b9 3d fd 7f d8 3d de 17 87 3c 9a 69 0b 3d
       0.09079482 0.10571287 0.016490873 0.034036256
0003b0 6e c9 b0 bd 8c 57 03 bd 0f ec d8 3c dd 2e 18 3d
       -0.0863217 -0.032065913 0.026479749 0.037154067
0003c0 78 28 69 bd 33 3b a3 bd 1d 09 65 bd 3c f7 fa 39
       -0.05692336 -0.07970276 -0.055916894 0.0004786792
0003d0 ad b1 67 3d 24 1f d0 bd ba f0 8b bb 6d fb a9 3d
       0.05656593 -0.101621896 -0.00427064 0.08299909
0003e0 8e 3f 5f bd fd 20 57 be 09 52 49 be 85 b0 94 bd
       -0.05450397 -0.21008678 -0.196602 -0.07260231
0003f0 71 36 d2 3d f6 e3 14 3d 03 ae ca bd ab ea 97 bd
       0.1026429 0.036350213 -0.09896471 -0.07417806

fc1.bias f4 [7]
000000 ae 22 ec bd 8f 1f 2c bd 80 53 3d bd f3 d3 1b bd
       -0.11530052 -0.042022284 -0.04622221 -0.038043927
000010 b6 43 d6 3d 94 a6 f0 3c c2 de 86 3d
       0.104621336 0.029376306 0.065854564
